FloppyNet_TRO/TRO_pretrained/RPI4/binaryNet_places365.tflite (tflite, 620796 bytes, 12 tensors)

functional_5/conv5_bn/FusedBatchNormV3;functional_1 f4 [384]
000000 5c 23 8c bf b3 6f 72 bf 8c 21 4f 3e 8e c7 3b be
       -1.0948291 -0.9470169 0.20227641 -0.18337843
000010 2c 27 fd 3d b0 8b 42 be 79 bf 99 3f 14 a3 78 bf
       0.12360987 -0.18998599 1.2011558 -0.9712384
000020 e9 5f 0f 3f 6e e7 95 3f 33 94 b5 be 00 f0 c4 b9
       0.5600572 1.1711252 -0.3546463 -0.00037562847
000030 12 df a9 bf 7c a4 30 bf b6 b0 1c 3f 0f 1e aa 3f
       -1.3271201 -0.69000983 0.6120714 1.3290423
000040 c2 f3 61 3e a6 d4 9f be 98 78 12 bd f7 ac 5b bf
       0.22065642 -0.31216925 -0.03575954 -0.858108
000050 ca 83 90 bd a8 31 41 bf 46 64 30 3f e8 4d 3b bf
       -0.07056387 -0.75466394 0.68903005 -0.7316575
000060 96 72 ae be c4 91 22 bf 19 60 5b 3f 82 b9 8e be
       -0.34071797 -0.6350367 0.8569351 -0.27875906
000070 24 29 fd bd 44 e2 05 bf 5a 8d e2 bf 0d fa 8e 3f
       -0.123613626 -0.5229838 -1.7699387 1.117006
000080 8c 86 68 bf 52 d1 79 bf fc 7d 2e bf 2a d0 80 bf
       -0.908303 -0.9758502 -0.68160987 -1.0063527
000090 41 80 c6 bf 44 c1 a0 bf a2 42 ba be 30 e5 8c be
       -1.550789 -1.255898 -0.36378962 -0.27518606
0000a0 a4 17 f4 bf 20 d3 3e be b8 26 9d bd fe 8c 42 3f
       -1.9069715 -0.18635225 -0.07673401 0.75996387
0000b0 5e fc de 3e 00 dc f1 3b 14 97 aa 3f 60 42 4c bd
       0.43551916 0.0073809624 1.3327355 -0.049867988
0000c0 5f e9 38 3f 62 2d dc 3e 9c 5c a6 3e c0 a3 b4 bd
       0.72231096 0.43003374 0.3249253 -0.08820295
0000d0 5e 64 bc 3e cf 01 f6 3e 52 6c 92 be f8 72 57 3f
       0.36795324 0.48048255 -0.28598267 0.84159803
0000e0 50 6a ac be ae 2b 3a 3e 76 f0 0c bf 02 bf aa 3f
       -0.3367486 0.18180725 -0.55054414 1.3339541
0000f0 42 39 a3 bf dd c5 a6 3e 30 30 9d bf 96 97 22 bf
       -1.2751849 0.32572833 -1.2280331 -0.6351255
000100 f4 27 2d 3e 60 4b 25 be 3a 68 cc 3e 31 c8 26 3f
       0.16909772 -0.16142035 0.3992327 0.6514922
000110 a7 23 0d 40 e0 f0 50 bd 08 06 50 3f 7c af 8c be
       2.205301 -0.051010966 0.812592 -0.27477634
000120 dc 6e 06 c0 43 ed 9c 3f a4 bd 85 3e 7f e5 8c bf
       -2.1005163 1.2259907 0.26121247 -1.1007537
000130 00 d4 df 39 52 f6 df be c4 c4 6c 3e a0 d4 96 3e
       0.00042691827 -0.43742615 0.23121935 0.29459095
000140 aa 33 44 be 68 91 39 bf 0e f6 43 3f f8 df 3a 3e
       -0.19160333 -0.724875 0.76547325 0.182495
000150 5c 6a 6e 3f ef e2 49 bf 09 fa 3e 3f 6e d5 bf 3e
       0.9313104 -0.788619 0.74600273 0.3746752
000160 20 a8 b3 3e 7c 50 6c be c8 52 bc bd 47 0d 1c 3f
       0.35089207 -0.23077577 -0.09195477 0.6095776
000170 0c 7b e0 3e 44 af 8c 3f f2 ff 0a 3f b0 db 63 bd
       0.43843877 1.0990987 0.5429679 -0.055629432
000180 56 6b 8d 3f f9 9c 93 3f f3 23 80 bf ee ae 63 3f
       1.1048381 1.1532279 -1.0010971 0.88938797
000190 d3 f2 2d 3f cc 88 59 bf c4 c9 0a be d4 f7 cb 3e
       0.67948645 -0.8497436 -0.1355353 0.39837515
0001a0 b7 b9 44 be 68 56 c4 bf d2 d9 0f bf 1e c7 19 bf
       -0.1921147 -1.5338869 -0.5619174 -0.60069454
0001b0 5c 41 e6 3e 28 98 60 3f 68 0e c9 bf fc 92 24 bf
       0.4497174 0.8773217 -1.5707521 -0.6428678
0001c0 f7 54 c2 3e a3 23 dc 3f 60 4c 12 be 1a b1 11 3f
       0.37955448 1.7198375 -0.14286947 0.5691086
0001d0 77 79 dd 3e 9b 64 8b 3e 41 f0 e8 bf 25 1c b9 3d
       0.43256733 0.27225193 -1.819832 0.09038571
0001e0 66 e5 1d 3f 7f 72 4b bf ce 6c d5 3d 79 bc 19 bf
       0.6167816 -0.7947158 0.104211435 -0.6005321
0001f0 94 85 a9 3f bc 81 71 bf 48 9d bd 3e 42 65 9e 3e
       1.324389 -0.94338584 0.3703406 0.3093663
000200 57 cc 18 3f 08 7f 06 be d2 1f 91 bd ce 4e 89 3e
       0.596868 -0.13134396 -0.07086147 0.26817936
000210 79 80 96 bf 60 dc 72 3e ae 27 f7 be e5 24 cb 3e
       -1.1757957 0.23716879 -0.4827246 0.39676586
000220 cc 72 68 3f 05 4d ee be 14 d6 4a 3f d2 73 14 bf
       0.90800166 -0.46543136 0.7923291 -0.5798923
000230 bf 09 f4 be cf 93 50 bf e1 f9 ce bf d0 ee 7b 3f
       -0.47663686 -0.8147554 -1.6170007 0.98411274
000240 2d 45 0d 3f 7c d2 94 bf fc c9 12 be 08 89 1a bf
       0.5518368 -1.1626735 -0.14334863 -0.60365343
000250 30 20 26 3d 84 1f 8b 3e 87 a7 35 3f 93 6e 67 3e
       0.04055804 0.27172482 0.7095875 0.22600774
000260 56 8c 7f bf 42 89 99 be fa 64 03 c0 63 e1 12 3e
       -0.9982351 -0.29987532 -2.0530381 0.1434379
000270 ca 5a b6 bf 5c 01 e1 3f de b9 de bf 54 26 c4 be
       -1.4246457 1.757854 -1.7400472 -0.38310492
000280 c8 8d b4 be 26 75 91 3f 4c f1 d4 3f e8 3a d4 3f
       -0.3526442 1.1363876 1.6636138 1.6580477
000290 a0 94 02 bf 03 8f 96 be 29 cb 77 3f 10 9a 16 bf
       -0.51008034 -0.29405984 0.9679437 -0.5882883
0002a0 22 b7 3c bf fe 85 d6 bf d7 67 b2 3e 00 20 9d 38
       -0.7371694 -1.6759641 0.3484485 7.492304e-05
0002b0 82 b5 4c bf d6 01 76 3f b6 07 7c be fb 68 34 bf
       -0.7996446 0.9609655 -0.24612316 -0.7047269
0002c0 00 32 17 3e f9 20 da 3e 46 ae ef be 6c ab 4c 3f
       0.14765167 0.4260328 -0.46812648 0.7994907
0002d0 88 1f 9b 3f e8 5f e1 3d 47 7b 85 3f 72 13 96 3f
       1.2118998 0.11004621 1.0428246 1.1724684
0002e0 18 43 fb 3e 46 29 37 bf 3c 37 a9 3f ee 9b cf bf
       0.49074626 -0.71547353 1.3219981 -1.6219461
0002f0 6e 8d d8 be 91 4c 77 bf 38 65 d1 be e0 b9 83 3d
       -0.42295402 -0.96601206 -0.40897536 0.06431937
000300 aa 05 a9 3e 5f 33 f2 3e d4 7c 1c be e4 48 a1 3f
       0.33012134 0.47304818 -0.15281993 1.260037
000310 b0 0c 8a bd 55 d7 d6 3f a9 28 38 bf 93 26 0b 3f
       -0.06740701 1.6784464 -0.7193704 0.54355735
000320 de 6b a9 3e ce ba 88 3f c6 e1 13 3f da 87 09 3f
       0.3309011 1.0682008 0.5776638 0.5372292
000330 1d f8 4e be 47 4a c3 3e d0 33 62 3f 10 ae f3 be
       -0.20211835 0.38142607 0.8836031 -0.47593737
000340 5e 9a 87 bf 7e ab 8b bf 35 f8 9e bf e4 f4 96 bf
       -1.0593984 -1.091171 -1.2419497 -1.1793485
000350 bc fc e6 be cc 87 9a 3e 00 b0 3d bd 12 4e 19 bf
       -0.45114696 0.3018173 -0.046310425 -0.5988475
000360 b7 2a aa 3e e1 7a 84 bf fe eb 4a bf 04 57 df bf
       0.33235714 -1.035 -0.79266346 -1.744843
000370 b3 73 20 3f 00 b1 64 3f c4 62 00 bf 60 21 54 bf
       0.62676543 0.8933258 -0.50150704 -0.82863426
000380 2c 7c c9 3e 5f a0 55 bf 62 ce ba be 96 45 87 bf
       0.39352548 -0.8344783 -0.36485583 -1.0568111
000390 68 52 0e bf f0 a5 9e bf fe 5d 45 bf 7a 3c 45 bf
       -0.5559449 -1.239439 -0.77096546 -0.77045405
0003a0 40 7f 2c 3e 78 3a 54 bf aa 89 78 bf 4f ea 7d 3f
       0.16845417 -0.82901716 -0.9708506 0.9918565
0003b0 0c 31 56 3f e7 80 31 3f 6c bd 23 3f 88 32 d4 3d
       0.8366859 0.69337314 0.6396091 0.103612006
0003c0 40 03 e2 bb 3e af 93 bf 75 5e ab be 4e 9c 58 3f
       -0.00689736 -1.1537855 -0.33470502 0.846135
0003d0 2e 03 36 3f fe 46 4d 3f c8 96 56 be e0 8d d3 3e
       0.710986 0.8018645 -0.20955956 0.4131918
0003e0 d0 60 15 3d 58 cc 0f 3f 5c 2f 82 3f 88 8b 1d 3f
       0.03646928 0.5617118 1.0170703 0.6154103
0003f0 68 cc df bf 15 4a e7 be 08 b2 a2 be 10 6b 56 be
       -1.7484255 -0.45173708 -0.31776452 -0.20939279

functional_5/conv5_bn/FusedBatchNormV3;functional_2 f4 [384]
000000 2b de 20 3c 9e aa 32 3c 12 8b 27 3c 7a 16 36 3c
       0.009818594 0.010904936 0.010226028 0.011113757
000010 b7 e2 17 3c a0 3c 0a 3c c0 11 f7 3b b5 05 12 3c
       0.009270362 0.008437306 0.0075399578 0.0089124935
000020 9a bd da 3b 25 51 02 3c 0e 9d 2c 3c 74 48 2d 3c
       0.0066754343 0.007953917 0.010535492 0.010576356
000030 11 b7 23 3c f2 99 1a 3c c9 cf 1c 3c 79 6e 1b 3c
       0.009992377 0.0094361175 0.009571024 0.009486788
000040 22 03 07 3c ca 09 cf 3b 96 70 f1 3b cd ad 34 3c
       0.008240493 0.0063183056 0.0073681576 0.011027765
000050 57 f9 22 3c bc 21 07 3c 06 27 e2 3b 77 e9 1b 3c
       0.009947143 0.008247789 0.0069016246 0.009516112
000060 45 73 51 3c 3b 24 0e 3c 25 93 e0 3b 01 39 10 3c
       0.01278383 0.00867563 0.0068534785 0.008802653
000070 f3 66 0c 3c 78 bc 12 3c 44 4f 27 3c 72 84 11 3c
       0.008569467 0.008956067 0.0102117695 0.008881675
000080 ea 87 13 3c c5 bd 21 3c 8d ab 39 3c 3a c3 07 3c
       0.009004572 0.009871905 0.011332405 0.008286292
000090 d3 75 16 3c 2b 80 1d 3c 8b 05 f1 3b ee 15 10 3c
       0.009183365 0.009613077 0.007355397 0.008794291
0000a0 ed ac 05 3c f6 7d 0d 3c c2 c6 1f 3c 8e 61 12 3c
       0.0081589045 0.008635988 0.009751977 0.008934392
0000b0 32 b7 1a 3c 98 04 0e 3c 99 be 0f 3c 91 38 3c 3c
       0.009443091 0.008668087 0.008773469 0.011488096
0000c0 e8 1f 10 3c a0 5e 18 3c 4e a7 23 3c e5 d0 00 3c
       0.00879667 0.009299904 0.009988619 0.007862304
0000d0 54 45 29 3c 9a 6f fd 3b 51 cd 0c 3c 7c e5 3a 3c
       0.0103314705 0.007734251 0.008593873 0.011407252
0000e0 5a c4 0b 3c 4b 56 ee 3b 05 4a 19 3c fd 06 11 3c
       0.008530701 0.0072734705 0.009356027 0.008851764
0000f0 17 e7 17 3c ee f1 11 3c c5 4d 25 3c 8e 34 1b 3c
       0.009271405 0.008907778 0.0100893425 0.009472979
000100 63 ef fd 3b af 0d 1d 3c 17 47 10 3c ce 3d 26 3c
       0.0077494844 0.009585782 0.008806012 0.010146571
000110 c8 26 21 3c fb 18 29 3c 96 d9 0b 3c bb 64 12 3c
       0.009835906 0.010320897 0.008535763 0.008935149
000120 74 99 11 3c 05 fc 47 3c 0c 95 28 3c 56 23 ee 3b
       0.008886684 0.012206082 0.010289442 0.007267396
000130 d0 77 11 3c 67 6f 1f 3c e3 2b 36 3c bd 3c 06 3c
       0.008878663 0.00973115 0.011118862 0.008193192
000140 31 83 2d 3c 5d b0 24 3c 77 ae 2c 3c bc ff 27 3c
       0.0105903605 0.010051814 0.010539643 0.010253843
000150 26 9f 1d 3c 60 19 b8 3b 1d 29 0f 3c 8b 5f e4 3b
       0.0096204635 0.0056182593 0.0087378295 0.0069693974
000160 22 5a 1d 3c dd cc 16 3c e0 98 f2 3b 95 bc 25 3c
       0.009604009 0.009204117 0.007403478 0.010115762
000170 ba 7c 3e 3c a9 74 35 3c dc ab 1c 3c c2 09 00 3c
       0.011626417 0.011075177 0.009562459 0.007814826
000180 ce d4 17 3c d6 99 42 3c 30 cb bf 3b dc b3 1d 3c
       0.009267045 0.011877498 0.0058530793 0.009625401
000190 d0 de 31 3c bf 5e 1a 3c fe 48 09 3c 89 8a 1c 3c
       0.010856345 0.009422003 0.008379219 0.009554514
0001a0 33 a5 06 3c 29 a4 0d 3c 61 78 42 3c 8e 88 1e 3c
       0.0082180975 0.008645096 0.011869521 0.009676112
0001b0 2f f6 09 3c 33 1a 0e 3c 14 2a 25 3c 62 bb fa 3b
       0.008420511 0.008673239 0.010080833 0.0076517323
0001c0 51 b6 1c 3c 76 5c 13 3c 40 34 29 3c cd 35 1b 3c
       0.009564952 0.008994212 0.010327399 0.009473276
0001d0 cf bf ea 3b ea 7f 1d 3c 37 05 1f 3c ba 50 07 3c
       0.0071639786 0.009613017 0.009705833 0.008258993
0001e0 a3 05 28 3c 66 24 0e 3c 67 0c 11 3c 77 13 4a 3c
       0.01025525 0.00867567 0.008853055 0.012333742
0001f0 4e a7 24 3c 3c a9 fa 3b 4d d0 1e 3c 9f 4c 24 3c
       0.010049654 0.007649569 0.009693217 0.0100280335
000200 bd 05 f4 3b 2b 50 24 3c b2 e8 17 3c 6c b8 09 3c
       0.007446973 0.010028879 0.0092717875 0.008405786
000210 31 a6 0d 3c 3d 9a 19 3c 53 bd 1d 3c 76 6a 23 3c
       0.00864558 0.009375152 0.009627658 0.009974113
000220 f6 d0 06 3c 0e 88 10 3c 62 5b f4 3b d6 62 0e 3c
       0.008228531 0.0088215 0.0074571827 0.0086905565
000230 da 6a 36 3c a3 32 e6 3b 09 2a 02 3c fd 6b d5 3b
       0.011133874 0.0070250793 0.007944592 0.0065131173
000240 8b 55 fa 3b 70 58 06 3c c2 d7 2a 3c 6b 4d 24 3c
       0.007639592 0.008199796 0.010427417 0.0100282235
000250 fd e5 f0 3b 96 d2 0c 3c f1 bb 38 3c fe b5 1b 3c
       0.0073516355 0.0085951295 0.0112752775 0.00950384
000260 66 91 22 3c 3b d3 02 3c e6 0c 2a 3c 9e 4b e9 3b
       0.009922361 0.007984932 0.010379052 0.00711961
000270 a7 43 29 3c d3 12 29 3c 59 eb 04 3c 3d 02 1f 3c
       0.010331071 0.010319429 0.008112752 0.0097051235
000280 a6 55 f9 3b 34 bc 0c 3c b2 5d 1e 3c 31 14 e6 3b
       0.007609087 0.008589793 0.009665893 0.00702145
000290 35 b4 20 3c 78 ff 16 3c cf 5f 33 3c 19 b3 27 3c
       0.00980859 0.009216182 0.0109481355 0.010235571
0002a0 ea c0 1a 3c c3 0e 27 3c a9 d6 20 3c 9a 50 eb 3b
       0.009445408 0.010196391 0.009816804 0.0071812393
0002b0 56 23 20 3c fd ce d3 3b a5 88 12 3c 15 94 2b 3c
       0.00977405 0.006463884 0.008943711 0.010472317
0002c0 3d 72 2d 3c 5c 06 ef 3b 86 11 07 3c 28 4d 0e 3c
       0.010586319 0.0072944593 0.008243924 0.008685388
0002d0 80 1e 16 3c ab 13 0d 3c e4 55 11 3c 26 94 50 3c
       0.009162545 0.008610646 0.008870576 0.012730634
0002e0 e3 64 ee 3b 6f 1c 1d 3c 70 13 23 3c c1 e8 e7 3b
       0.00727521 0.009589299 0.009953365 0.007077307
0002f0 a2 08 1b 3c da 6b 07 3c 6e 93 da 3b ec 14 13 3c
       0.009462507 0.00826546 0.006670407 0.008977156
000300 9f 83 17 3c 92 a4 08 3c 9f f6 f9 3b ec ec 0e 3c
       0.0092476895 0.008340018 0.0076282765 0.008723479
000310 5b 46 0c 3c 72 d8 25 3c 6c 6d 01 3c ba 53 1c 3c
       0.008561696 0.010122405 0.007899623 0.009541446
000320 5b da 27 3c a1 02 17 3c e7 2d 1a 3c a1 59 05 3c
       0.010244931 0.009216935 0.009410358 0.008139045
000330 c4 e7 0e 3c 0b bf 0a 3c 65 4b 06 3c a2 6b 13 3c
       0.008722249 0.0084684 0.008196686 0.00899783
000340 d2 65 1e 3c da 3e 77 3c e2 eb 1b 3c 97 44 3d 3c
       0.009667831 0.015090669 0.009516688 0.011551998
000350 c0 80 17 3c c5 f6 1a 3c 1a d4 21 3c 3c e1 15 3c
       0.009247005 0.0094582485 0.009877229 0.009147938
000360 37 97 15 3c ab 2a 09 3c 02 e5 42 3c 6e 11 2a 3c
       0.009130291 0.008371989 0.01189542 0.010380132
000370 fb f1 0a 3c 24 86 28 3c 58 05 0a 3c 83 eb 0f 3c
       0.008480544 0.010285888 0.008424126 0.008784178
000380 de 46 07 3c f8 ef 02 3c 4e 53 23 3c fb d4 1d 3c
       0.008256642 0.007991783 0.009968592 0.009633298
000390 76 09 04 3c 11 7e 18 3c c9 42 32 3c fa 8c 19 3c
       0.008058896 0.0093074 0.010880181 0.00937199
0003a0 f9 6f 0c 3c 50 aa 17 3c dd 38 24 3c e1 21 1f 3c
       0.008571618 0.009256914 0.010023323 0.009712667
0003b0 f3 d3 0e 3c 69 19 08 3c ec 33 0f 3c 4d 0f 21 3c
       0.008717525 0.0083068395 0.0087404065 0.009830308
0003c0 2f 4e f7 3b 8c f1 28 3c 38 ee 28 3c 0c 50 f7 3b
       0.007547162 0.0103114955 0.010310702 0.007547384
0003d0 56 9e 08 3c e1 53 16 3c 56 ba 29 3c c7 35 0b 3c
       0.0083385315 0.009175272 0.010359367 0.008496708
0003e0 4a 73 20 3c 25 f4 01 3c b3 8c 4b 3c a5 0c 22 3c
       0.009793112 0.007931744 0.012423682 0.00989071
0003f0 1b 7f 0b 3c 01 91 1d 3c a2 ea 10 3c 00 dd 08 3c
       0.008514191 0.009617091 0.008845003 0.008353472

functional_5/conv4_bn/FusedBatchNormV3;functional_1 f4 [384]
000000 1d 4f 96 3e 74 79 09 3e 18 1c df bd d6 5e f1 bf
       0.29357234 0.13425237 -0.1089403 -1.8857067
000010 e6 df 64 bf 41 16 89 be 18 17 da 3d 0c c1 1a bf
       -0.8940414 -0.2677479 0.10648936 -0.60450816
000020 04 0a cf be d5 cf 92 bf 28 48 e2 bd 12 42 5f bf
       -0.4043733 -1.1469675 -0.11048919 -0.8721019
000030 83 ad ba be 75 17 a0 bf 04 90 45 be 6c ce a3 bf
       -0.36460504 -1.2507159 -0.19293219 -1.279737
000040 fe 2c 5e 3f 6d 6c 3b bf 3e 42 b1 be fa df 7c 3f
       0.867874 -0.7321232 -0.3462085 0.9877926
000050 11 94 90 bf 6c 33 31 3f 7c dd bb 3f 69 93 59 bf
       -1.1295186 0.6921909 1.4676967 -0.84990555
000060 5e 56 30 bf 43 2a d9 3e 7b 6f fd be 74 dc 96 bf
       -0.68881786 0.42415056 -0.49499115 -1.1786027
000070 c6 fc ad 3f c3 d3 92 3e bc b8 46 bf ce 20 aa bf
       1.3592765 0.28677186 -0.7762563 -1.3291261
000080 e2 77 ab be 5e 0a a9 3f ab 31 51 bf cc 8f 68 bf
       -0.334899 1.3206289 -0.8171641 -0.90844417
000090 66 e1 02 bf 16 20 67 bf 6f 14 8d be c7 f5 37 bf
       -0.5112518 -0.90283334 -0.27554652 -0.718594
0000a0 23 e7 af 3f 80 9e c2 bf 78 13 3a be b1 35 16 bf
       1.3742412 -1.520462 -0.18171489 -0.58675677
0000b0 6b 78 41 bf 4a a4 1c bf 2e 44 ff bf 45 d9 16 3f
       -0.7557437 -0.61188185 -1.9942682 0.58925277
0000c0 84 22 e1 bf e6 f6 15 3f db 2c 2b 3f ba 05 3b bf
       -1.7588658 0.5857986 0.6686532 -0.73055613
0000d0 53 a0 b3 bf 10 46 3e be af 35 59 bf ee fb 7a 3e
       -1.4033302 -0.18581414 -0.8484754 0.24510166
0000e0 15 14 37 3f c1 25 6b bf da 16 25 bf c4 44 d6 bf
       0.7151502 -0.9185448 -0.64487994 -1.6739736
0000f0 78 fb ef 3e 1a 92 c4 3f c5 70 ba 3d 40 fd 1d 3e
       0.46871543 1.5357087 0.0910354 0.15428638
000100 e4 78 79 bf 14 f5 df 3f 24 a0 a0 3e c2 bb a9 be
       -0.9745009 1.7496667 0.31372178 -0.3315106
000110 f8 01 3a bf 96 4e ae be 9f 84 23 bf ad 98 d0 bf
       -0.72659254 -0.3404433 -0.6387424 -1.6296593
000120 29 2d 2a bf ae f7 20 bf fa 30 27 3f 9a 62 c2 bf
       -0.6647516 -0.6287793 0.6530911 -1.5186341
000130 56 e6 17 bf 38 f9 01 bf 45 6f 03 c0 ae 16 98 bf
       -0.5933584 -0.507709 -2.0536664 -1.1881921
000140 ff bd 80 bf ca 8e 3f bf e0 d0 6a 3f fe 74 c7 be
       -1.0057982 -0.74827254 0.9172497 -0.38956445
000150 c8 75 e4 3d d0 ef 15 bd 98 f3 7f bf e5 10 01 c0
       0.111552775 -0.036605656 -0.9998107 -2.0166562
000160 bc 45 bf be 54 56 ac bf 4a fc 53 3f 79 97 6d bf
       -0.3735789 -1.3463845 0.8280684 -0.92809254
000170 f0 2a 50 bd 9e c7 67 be 70 c8 17 3e f9 dd 94 3f
       -0.0508222 -0.22634742 0.14822555 1.1630241
000180 ef 4e d9 3e 08 4d be bf 8a 6c 81 3e d4 96 b2 bf
       0.42443034 -1.4867258 0.2527812 -1.3952279
000190 08 59 e5 3d b2 e9 e7 be 79 c4 1c bf 84 2e 87 3e
       0.11198622 -0.45295483 -0.61237293 0.26402676
0001a0 94 d1 ee bd 6e 27 97 bf fd 22 b0 be df 91 e7 3f
       -0.116610676 -1.1808908 -0.34401694 1.8091391
0001b0 14 2d 0e bf 2d 68 11 bf f5 46 51 3f f0 41 2f be
       -0.55537534 -0.56799585 0.81748897 -0.17114997
0001c0 8b 12 84 bf 10 7d eb 3c c8 61 e1 3d 0a 9f ce bf
       -1.0318159 0.028746158 0.110049784 -1.6142285
0001d0 8c f2 f5 3d 41 2c ad 3f 08 4f 84 3d bc b6 9a bf
       0.12009153 1.352913 0.064603865 -1.2087016
0001e0 1c 0e d4 bf 46 ca e0 be 6a 65 01 bf 9e 32 53 3e
       -1.6566806 -0.43904322 -0.5054537 0.20624778
0001f0 db 2b 82 bf 9c ac 87 be 27 c7 fd 3e 16 43 f9 be
       -1.0169634 -0.26498878 0.49566004 -0.48683995
000200 ca 66 49 bf a2 50 43 3f 94 0f ba be 6b d9 29 3f
       -0.7867247 0.7629491 -0.3634001 0.6634738
000210 18 07 12 be 22 f4 da 3e c5 b8 14 bf 88 3b 87 bf
       -0.14260519 0.42764384 -0.58094436 -1.0565042
000220 2d 27 60 3f 80 d7 d9 bf 24 f2 6a 3f 2d 90 50 3f
       0.8755978 -1.701889 0.9177573 0.81469995
000230 ac 0d 04 3f c2 41 8b bf 9d e4 52 3f f6 71 a6 3e
       0.5158336 -1.0879443 0.82380086 0.3250882
000240 80 49 1a bf 28 1f 80 3c 5a 71 a7 bf 35 73 91 3f
       -0.602684 0.015639856 -1.3081467 1.1363283
000250 8e d0 d2 bf 86 58 14 3f 18 50 0e 40 90 fa 12 3d
       -1.6469896 0.57947576 2.2236385 0.035883486
000260 c7 29 8c 3f 3c 3d 6e bf b9 bb a3 3e 04 62 25 be
       1.095025 -0.93062186 0.3197916 -0.16150671
000270 68 d8 0e 3f d4 6c 0b 3e 9d 55 50 bf 21 71 4a bf
       0.5579896 0.13615733 -0.81380635 -0.7907887
000280 69 f5 91 3f 75 33 8a be 40 f1 a4 3b b3 c6 00 40
       1.1403018 -0.26992384 0.005033642 2.0121276
000290 71 28 1c 3f f2 6f 95 3f 40 12 9a bf c9 80 8a 3f
       0.6099921 1.1674788 -1.203682 1.0820552
0002a0 0d 85 68 3f da c5 8e 3f c4 80 92 3f 4f 34 99 bf
       0.9082802 1.115413 1.1445546 -1.1969088
0002b0 12 d7 8e bf 62 e1 80 3e bb 2c a1 be 34 2c 06 3f
       -1.1159384 0.25171953 -0.3147944 0.524112
0002c0 8a c4 a8 be b6 60 c1 3f 5f 4f 11 bf bc 7c ef 3e
       -0.32962447 1.5107639 -0.56761736 0.46774852
0002d0 bb d9 8c bf 04 c0 ee be 40 6a 52 bc 50 fe dd bf
       -1.1003946 -0.4663087 -0.012842715 -1.7343235
0002e0 fa 23 65 be c6 54 ca 3e c4 f5 8f bf f5 38 62 3f
       -0.22377005 0.39517802 -1.1246877 0.8836816
0002f0 08 e5 16 be 78 4b f6 3f b0 41 07 bf 1a b7 51 be
       -0.14735806 1.9241781 -0.52834606 -0.20480004
000300 9d ff 41 3f ff ae 26 bf 40 f7 93 3d c6 b2 02 bf
       0.7578066 -0.6511077 0.072248936 -0.51054037
000310 46 df 86 3f 67 d4 34 bf 8a fc 40 bf d5 06 30 bf
       1.0536888 -0.706366 -0.75385344 -0.68760425
000320 aa 5b 31 3f aa de 47 bf a2 ff 8b bf d6 76 fe 3f
       0.69280493 -0.78074133 -1.0937388 1.9880016
000330 f2 24 94 bf a4 6c d8 3e 13 60 0a bf 1e c4 17 bf
       -1.1573775 0.42270386 -0.5405285 -0.59283626
000340 88 4e 5c be 20 ca 36 3c 94 c6 26 3e e8 b3 9f bf
       -0.21514332 0.011156589 0.16286689 -1.2476778
000350 23 f1 f7 bf 60 96 be bf 14 fa 2e bf 49 56 06 bf
       -1.9370464 -1.4889641 -0.6835034 -0.5247541
000360 53 68 08 be 0a 0a 82 be c8 e1 63 bf ee 94 c6 3f
       -0.13321047 -0.25398284 -0.8901639 1.55142
000370 d2 8c fd bf 70 57 cf 3e 9c e5 d0 bf fa 6b 94 bf
       -1.98086 0.40496397 -1.6320071 -1.1595452
000380 10 ac 0a c0 fe b0 9d 3e 8e 68 bb bf 5a a1 6b 3e
       -2.1667519 0.30799097 -1.4641283 0.2301077
000390 d7 d9 7d 3f 6b d9 4f 3f 98 7b b2 bf 34 cf e8 3f
       0.9916052 0.8119113 -1.3943968 1.8188233
0003a0 dd 87 67 3f 5b a9 ac be a8 24 bf bd 71 99 1c bf
       0.90441686 -0.33722958 -0.093331635 -0.61171633
0003b0 21 34 2c bf a0 1a 80 bf de cc bf 3e 5f ea aa bf
       -0.6726704 -1.0008125 0.3746099 -1.3352774
0003c0 02 c6 66 bf 2d 83 81 3e 3e 57 7c bf 34 70 f6 3d
       -0.90145886 0.25295392 -0.9857062 0.1203312
0003d0 5a b8 47 bf a2 c8 93 be 52 bd 11 c0 4d 57 08 c0
       -0.78015673 -0.28864008 -2.2771802 -2.1303284
0003e0 0d 3a 72 3e ba e4 96 3e 97 75 52 bf cf 50 62 bf
       0.23654957 0.2947138 -0.8221068 -0.88404554
0003f0 99 ea 3d 3f fc 8e 51 bf c2 eb 8d 3f 64 bf 04 be
       0.7418609 -0.818588 1.1087573 -0.12963635

functional_5/conv4_bn/FusedBatchNormV3;functional_2 f4 [384]
000000 3e 5c 67 3c 7b 17 48 3c 13 5d 6e 3c 2b 9c 64 3c
       0.014121113 0.012212629 0.014548558 0.013953249
000010 f4 b0 5b 3c 88 50 75 3c 57 6a 36 3c 2c fe 69 3c
       0.013408888 0.014972813 0.011133752 0.014281791
000020 03 56 64 3c 7a 88 4e 3c da 0f 33 3c 4d 00 dc 3b
       0.013936522 0.012605781 0.010929072 0.006713903
000030 e8 21 61 3c 96 33 7f 3c 88 a1 4f 3c ff 59 41 3c
       0.013740994 0.015576264 0.012672789 0.011801242
000040 97 36 76 3c a6 bf 81 3c 95 31 44 3c 9f b1 64 3c
       0.015027664 0.015838455 0.011974712 0.013958364
000050 cc 21 7d 3c 57 a6 1b 3c 2f 9d 51 3c 92 7c 51 3c
       0.015449952 0.009500108 0.012793823 0.0127860475
000060 b2 36 5f 3c 02 13 49 3c ef ad 4d 3c 0e 20 6b 3c
       0.01362388 0.012272598 0.012553676 0.014350904
000070 48 98 61 3c 1e 02 73 3c 47 dc 4b 3c f1 7d 53 3c
       0.013769217 0.014832048 0.012442655 0.012908445
000080 ff eb 14 3c 10 2d 6c 3c 99 08 5d 3c a6 d0 6e 3c
       0.009089469 0.014415041 0.013490819 0.014576113
000090 f6 e0 69 3c 4e 6c a6 3b c5 f9 95 3b 69 88 6e 3c
       0.014274826 0.005078829 0.004576894 0.01455889
0000a0 2f 8d 64 3c 7b 5d 74 3c 84 04 7d 3c 51 46 73 3c
       0.013949676 0.014914866 0.015442971 0.014848308
0000b0 a1 29 51 3c a7 e5 72 3c e6 2a 63 3c 12 80 7c 3c
       0.012766273 0.014825261 0.013865208 0.015411394
0000c0 5c 50 67 3c 9f a3 55 3c 01 82 44 3c c4 4d 4e 3c
       0.01411828 0.013039499 0.011993886 0.012591783
0000d0 bf 90 4f 3c a7 b1 7d 3c aa 3a 61 3c b3 dc 77 3c
       0.0126687875 0.01548425 0.013746897 0.015128302
0000e0 c8 f2 7b 3c ea a7 6b 3c 20 75 4f 3c 4d e6 4a 3c
       0.015377708 0.014383296 0.012662202 0.01238401
0000f0 88 b6 37 3c 16 84 60 3c 54 4e 4d 3b 13 f0 5e 3c
       0.011212952 0.013703367 0.0031327205 0.013607043
000100 86 00 74 3c d7 1f 6e 3c 72 15 86 3c 0f c0 6e 3c
       0.014892703 0.014533958 0.016367648 0.0145721575
000110 60 a4 2e 3c 69 a2 81 3c e6 f0 63 3c 0c 99 6b 3c
       0.010659307 0.015824514 0.013912415 0.014379751
000120 f9 37 6b 3c f6 11 4c 3c 7d c7 28 3c c8 04 76 3c
       0.014356607 0.012455454 0.010301468 0.015015788
000130 be 22 6c 3c 2c b3 65 3c c0 a4 77 3c 07 42 2b 3c
       0.01441258 0.014019769 0.015114963 0.010452754
000140 61 95 67 3c 47 f9 7f 3c 7a 47 08 3c dd 35 88 3c
       0.014134736 0.015623397 0.008317823 0.016627247
000150 97 8d f3 3b aa 02 23 3c 58 cd 64 3c e2 4c 82 3c
       0.0074326503 0.009949366 0.013964973 0.015905801
000160 bf 4c 05 3c c4 30 4f 3c 81 34 50 3c 8b 17 62 3c
       0.0081359735 0.012645904 0.01270783 0.013799558
000170 01 4d 4e 3c ed 01 18 3c 93 6e 88 3c 7c 51 6e 3c
       0.012591601 0.009277803 0.016654288 0.014545795
000180 d1 9a 8f 3b 30 54 6a 3c aa 8a 62 3c 3d 4c 4c 3c
       0.004382469 0.014302298 0.013827005 0.0124693485
000190 ec 96 4b 3c 99 7f 88 3c e2 72 67 3c 06 5e 82 3c
       0.012426119 0.016662406 0.014126511 0.015913974
0001a0 f9 aa 47 3c 51 6b 63 3c 25 48 12 3c ac 19 81 3c
       0.012186759 0.013880567 0.008928333 0.015759312
0001b0 6c 94 63 3c b9 ee 60 3c 38 1d 56 3c 81 b5 37 3c
       0.013890367 0.013728791 0.01306849 0.0112127075
0001c0 b7 9c 83 3c a5 e3 58 3c 81 94 62 3c 74 07 67 3c
       0.016065938 0.013237868 0.013829351 0.014100898
0001d0 8d b7 25 3c 59 8f 72 3c 8a e3 6d 3c fe db 16 3c
       0.010114563 0.014804685 0.014519582 0.009207724
0001e0 21 50 70 3c 49 40 52 3c 75 65 8d 3b 52 96 49 3c
       0.014667542 0.01283271 0.004315073 0.012303906
0001f0 8e e5 3f 3c 6c 33 6c 3c d9 17 69 3c 5e 63 2f 3c
       0.011712445 0.014416557 0.014226877 0.010704843
000200 77 0c 52 3c a0 c3 57 3c 13 10 6b 3c fc 6a 67 3c
       0.012820355 0.013169199 0.014347094 0.014124628
000210 f3 e2 5a 3c 57 f8 19 3c f2 f4 46 3c 59 bd d5 3b
       0.013359773 0.009397588 0.01214336 0.006522816
000220 cf 13 5c 3c 85 22 83 3c cc 9d 5e 3c aa 5b 7d 3c
       0.013432457 0.016007671 0.013587426 0.015463749
000230 86 21 5e 3c d5 41 67 3c 0b 6e 4f 3c 4f 88 c9 3b
       0.013557797 0.014114817 0.012660514 0.0061502825
000240 f0 ea 2d 3c b8 4f 58 3c 6b b8 71 3c 1d be 44 3c
       0.0106150955 0.0132026 0.014753441 0.012008217
000250 b5 c4 60 3c 33 de 5a 3c fd 12 49 3c f0 bf 79 3c
       0.013718774 0.0133586405 0.012272594 0.015243515
000260 16 ee 76 3c fa 6a 56 3c 82 47 75 3c da 79 0c 3c
       0.015071413 0.013087029 0.014970662 0.008573974
000270 c1 52 4b 3c f9 00 17 3c ef 47 65 3c 14 00 54 3c
       0.012409867 0.0092165405 0.013994201 0.012939472
000280 14 d6 66 3c c1 a1 43 3c de c7 49 3c 78 21 5f 3c
       0.014089126 0.011940421 0.012315718 0.013618819
000290 5c 09 55 3c 5d 20 6e 3c 38 ad 8d 3c f9 10 6d 3c
       0.01300272 0.014534083 0.017294511 0.014469379
0002a0 97 8a 5f 3c c1 9d 67 3c f8 35 5f 3c 5e c1 55 3c
       0.013643882 0.014136733 0.013623707 0.013046591
0002b0 38 58 7f 3c 86 03 22 3c fb 7f 2f 3c 10 52 2e 3c
       0.015584998 0.009888535 0.010711665 0.010639682
0002c0 c2 31 93 3b dd 39 7b 3c 98 37 4e 3c 29 fc 3d 3c
       0.0044920156 0.01533362 0.012586497 0.011595764
0002d0 b2 80 37 3c e9 0c da 3b 22 c6 58 3c cb 6e 6c 3c
       0.011200117 0.006654371 0.013230832 0.014430712
0002e0 0b 4e 83 3c 4a 53 85 3c ff 33 59 3c be 21 6d 3c
       0.016028425 0.016275067 0.013257026 0.014473377
0002f0 fe 85 73 3c 97 b9 5e 3c 53 33 5b 3c 67 16 57 3c
       0.014863489 0.013594053 0.013378936 0.0131279
000300 07 c8 61 3c b2 d7 88 3c 78 60 73 3c b8 69 46 3c
       0.0137806 0.016704414 0.014854543 0.012110166
000310 94 db 6b 3c 04 8c 7d 3c bd ac 3e 3c 89 b5 4f 3c
       0.014395613 0.015475277 0.011637864 0.012677559
000320 0f ac c5 3b e2 56 67 3c a4 2b 4c 3c 6d 02 61 3c
       0.006032474 0.014119836 0.012461577 0.0137334885
000330 2a 61 81 3c da ee 67 3c d7 5d 5a 3c b5 82 6e 3c
       0.015793402 0.014156068 0.013328037 0.01455753
000340 45 f6 44 3c 98 36 6a 3c 44 8b 65 3c ec 59 3e 3c
       0.012021606 0.014295243 0.014010254 0.011618119
000350 1a 06 51 3c 42 f4 64 3c 65 93 58 3c 5a 3a 46 3c
       0.012757802 0.013974251 0.013218735 0.012098873
000360 d8 dd 51 3c ac 37 57 3c 8c e5 4a 3c 19 38 60 3c
       0.012809239 0.013135832 0.01238383 0.01368525
000370 26 f5 59 3c 86 a3 69 3c a5 ab 50 3c 8c 21 4e 3c
       0.013303077 0.014260178 0.012736236 0.01258124
000380 29 2a 78 3c 76 8f 60 3c 29 c8 38 3c b8 9d 60 3b
       0.0151467705 0.013706079 0.011278191 0.0034273695
000390 7d 4f 47 3c bb 0f 2c 3c 26 39 78 3c 11 33 81 3c
       0.012164948 0.010501797 0.015150344 0.01577142
0003a0 63 2c 4a 3c 44 c1 76 3c 3f 14 3d 3c 5b ad 66 3c
       0.012339684 0.015060727 0.011540472 0.014079417
0003b0 eb b9 4b 3c 05 7b 83 3c 35 54 7c 3c d3 26 45 3c
       0.012434463 0.016049871 0.015400936 0.012033182
0003c0 9e f6 68 3c 29 00 5d 3c ac 96 5d 3c 25 b2 2a 3c
       0.014218954 0.013488808 0.0135246925 0.0104184495
0003d0 c1 54 06 3c 12 b8 2e 3c 97 86 63 3c c4 1c 56 3c
       0.008198918 0.010664003 0.013887069 0.013068382
0003e0 7b 00 4f 3c 84 d7 53 3c 3d 0e 77 3c 15 dc 70 3c
       0.012634392 0.012929801 0.015079078 0.014700909
0003f0 da 4a 56 3c 79 3d 6a 3c 85 36 53 3c 00 25 7c 3c
       0.013079369 0.014296883 0.012891416 0.015389681

functional_5/conv1/QuantConv2D f4 [96]
000000 00 00 00 00 00 00 00 00 00 00 00 00 00 00 00 00
       0.0 0.0 0.0 0.0
000010 00 00 00 00 00 00 00 00 00 00 00 00 00 00 00 00
       0.0 0.0 0.0 0.0
000020 00 00 00 00 00 00 00 00 00 00 00 00 00 00 00 00
       0.0 0.0 0.0 0.0
000030 00 00 00 00 00 00 00 00 00 00 00 00 00 00 00 00
       0.0 0.0 0.0 0.0
000040 00 00 00 00 00 00 00 00 00 00 00 00 00 00 00 00
       0.0 0.0 0.0 0.0
000050 00 00 00 00 00 00 00 00 00 00 00 00 00 00 00 00
       0.0 0.0 0.0 0.0
000060 00 00 00 00 00 00 00 00 00 00 00 00 00 00 00 00
       0.0 0.0 0.0 0.0
000070 00 00 00 00 00 00 00 00 00 00 00 00 00 00 00 00
       0.0 0.0 0.0 0.0
000080 00 00 00 00 00 00 00 00 00 00 00 00 00 00 00 00
       0.0 0.0 0.0 0.0
000090 00 00 00 00 00 00 00 00 00 00 00 00 00 00 00 00
       0.0 0.0 0.0 0.0
0000a0 00 00 00 00 00 00 00 00 00 00 00 00 00 00 00 00
       0.0 0.0 0.0 0.0
0000b0 00 00 00 00 00 00 00 00 00 00 00 00 00 00 00 00
       0.0 0.0 0.0 0.0
0000c0 00 00 00 00 00 00 00 00 00 00 00 00 00 00 00 00
       0.0 0.0 0.0 0.0
0000d0 00 00 00 00 00 00 00 00 00 00 00 00 00 00 00 00
       0.0 0.0 0.0 0.0
0000e0 00 00 00 00 00 00 00 00 00 00 00 00 00 00 00 00
       0.0 0.0 0.0 0.0
0000f0 00 00 00 00 00 00 00 00 00 00 00 00 00 00 00 00
       0.0 0.0 0.0 0.0
000100 00 00 00 00 00 00 00 00 00 00 00 00 00 00 00 00
       0.0 0.0 0.0 0.0
000110 00 00 00 00 00 00 00 00 00 00 00 00 00 00 00 00
       0.0 0.0 0.0 0.0
000120 00 00 00 00 00 00 00 00 00 00 00 00 00 00 00 00
       0.0 0.0 0.0 0.0
000130 00 00 00 00 00 00 00 00 00 00 00 00 00 00 00 00
       0.0 0.0 0.0 0.0
000140 00 00 00 00 00 00 00 00 00 00 00 00 00 00 00 00
       0.0 0.0 0.0 0.0
000150 00 00 00 00 00 00 00 00 00 00 00 00 00 00 00 00
       0.0 0.0 0.0 0.0
000160 00 00 00 00 00 00 00 00 00 00 00 00 00 00 00 00
       0.0 0.0 0.0 0.0
000170 00 00 00 00 00 00 00 00 00 00 00 00 00 00 00 00
       0.0 0.0 0.0 0.0

functional_5/conv1/QuantConv2D1 f4 [96, 11, 11, 3]
000000 00 00 80 3f 00 00 80 bf 00 00 80 bf 00 00 80 3f
       1.0 -1.0 -1.0 1.0
000010 00 00 80 3f 00 00 80 bf 00 00 80 bf 00 00 80 3f
       1.0 -1.0 -1.0 1.0
000020 00 00 80 bf 00 00 80 bf 00 00 80 bf 00 00 80 3f
       -1.0 -1.0 -1.0 1.0
000030 00 00 80 bf 00 00 80 bf 00 00 80 3f 00 00 80 bf
       -1.0 -1.0 1.0 -1.0
000040 00 00 80 bf 00 00 80 3f 00 00 80 bf 00 00 80 bf
       -1.0 1.0 -1.0 -1.0
000050 00 00 80 3f 00 00 80 bf 00 00 80 bf 00 00 80 3f
       1.0 -1.0 -1.0 1.0
000060 00 00 80 bf 00 00 80 bf 00 00 80 3f 00 00 80 bf
       -1.0 -1.0 1.0 -1.0
000070 00 00 80 3f 00 00 80 3f 00 00 80 bf 00 00 80 3f
       1.0 1.0 -1.0 1.0
000080 00 00 80 3f 00 00 80 3f 00 00 80 3f 00 00 80 bf
       1.0 1.0 1.0 -1.0
000090 00 00 80 3f 00 00 80 bf 00 00 80 bf 00 00 80 3f
       1.0 -1.0 -1.0 1.0
0000a0 00 00 80 3f 00 00 80 bf 00 00 80 3f 00 00 80 3f
       1.0 -1.0 1.0 1.0
0000b0 00 00 80 bf 00 00 80 bf 00 00 80 bf 00 00 80 3f
       -1.0 -1.0 -1.0 1.0
0000c0 00 00 80 bf 00 00 80 bf 00 00 80 3f 00 00 80 bf
       -1.0 -1.0 1.0 -1.0
0000d0 00 00 80 bf 00 00 80 3f 00 00 80 bf 00 00 80 bf
       -1.0 1.0 -1.0 -1.0
0000e0 00 00 80 3f 00 00 80 bf 00 00 80 bf 00 00 80 3f
       1.0 -1.0 -1.0 1.0
0000f0 00 00 80 bf 00 00 80 bf 00 00 80 3f 00 00 80 bf
       -1.0 -1.0 1.0 -1.0
000100 00 00 80 3f 00 00 80 3f 00 00 80 3f 00 00 80 3f
       1.0 1.0 1.0 1.0
000110 00 00 80 bf 00 00 80 3f 00 00 80 3f 00 00 80 bf
       -1.0 1.0 1.0 -1.0
000120 00 00 80 3f 00 00 80 bf 00 00 80 bf 00 00 80 3f
       1.0 -1.0 -1.0 1.0
000130 00 00 80 bf 00 00 80 bf 00 00 80 bf 00 00 80 bf
       -1.0 -1.0 -1.0 -1.0
000140 00 00 80 3f 00 00 80 bf 00 00 80 3f 00 00 80 3f
       1.0 -1.0 1.0 1.0
000150 00 00 80 bf 00 00 80 bf 00 00 80 3f 00 00 80 bf
       -1.0 -1.0 1.0 -1.0
000160 00 00 80 bf 00 00 80 3f 00 00 80 bf 00 00 80 bf
       -1.0 1.0 -1.0 -1.0
000170 00 00 80 3f 00 00 80 bf 00 00 80 bf 00 00 80 3f
       1.0 -1.0 -1.0 1.0
000180 00 00 80 bf 00 00 80 3f 00 00 80 3f 00 00 80 3f
       -1.0 1.0 1.0 1.0
000190 00 00 80 3f 00 00 80 bf 00 00 80 3f 00 00 80 3f
       1.0 -1.0 1.0 1.0
0001a0 00 00 80 bf 00 00 80 3f 00 00 80 3f 00 00 80 bf
       -1.0 1.0 1.0 -1.0
0001b0 00 00 80 3f 00 00 80 3f 00 00 80 bf 00 00 80 3f
       1.0 1.0 -1.0 1.0
0001c0 00 00 80 3f 00 00 80 bf 00 00 80 bf 00 00 80 bf
       1.0 -1.0 -1.0 -1.0
0001d0 00 00 80 3f 00 00 80 bf 00 00 80 bf 00 00 80 3f
       1.0 -1.0 -1.0 1.0
0001e0 00 00 80 bf 00 00 80 bf 00 00 80 3f 00 00 80 bf
       -1.0 -1.0 1.0 -1.0
0001f0 00 00 80 bf 00 00 80 3f 00 00 80 bf 00 00 80 bf
       -1.0 1.0 -1.0 -1.0
000200 00 00 80 3f 00 00 80 bf 00 00 80 bf 00 00 80 3f
       1.0 -1.0 -1.0 1.0
000210 00 00 80 3f 00 00 80 3f 00 00 80 bf 00 00 80 3f
       1.0 1.0 -1.0 1.0
000220 00 00 80 3f 00 00 80 bf 00 00 80 3f 00 00 80 3f
       1.0 -1.0 1.0 1.0
000230 00 00 80 bf 00 00 80 3f 00 00 80 3f 00 00 80 bf
       -1.0 1.0 1.0 -1.0
000240 00 00 80 3f 00 00 80 3f 00 00 80 bf 00 00 80 bf
       1.0 1.0 -1.0 -1.0
000250 00 00 80 bf 00 00 80 3f 00 00 80 bf 00 00 80 bf
       -1.0 1.0 -1.0 -1.0
000260 00 00 80 3f 00 00 80 bf 00 00 80 bf 00 00 80 3f
       1.0 -1.0 -1.0 1.0
000270 00 00 80 bf 00 00 80 bf 00 00 80 3f 00 00 80 bf
       -1.0 -1.0 1.0 -1.0
000280 00 00 80 bf 00 00 80 3f 00 00 80 bf 00 00 80 bf
       -1.0 1.0 -1.0 -1.0
000290 00 00 80 3f 00 00 80 3f 00 00 80 3f 00 00 80 bf
       1.0 1.0 1.0 -1.0
0002a0 00 00 80 3f 00 00 80 3f 00 00 80 bf 00 00 80 3f
       1.0 1.0 -1.0 1.0
0002b0 00 00 80 3f 00 00 80 bf 00 00 80 3f 00 00 80 3f
       1.0 -1.0 1.0 1.0
0002c0 00 00 80 bf 00 00 80 3f 00 00 80 3f 00 00 80 bf
       -1.0 1.0 1.0 -1.0
0002d0 00 00 80 3f 00 00 80 bf 00 00 80 bf 00 00 80 bf
       1.0 -1.0 -1.0 -1.0
0002e0 00 00 80 bf 00 00 80 3f 00 00 80 bf 00 00 80 bf
       -1.0 1.0 -1.0 -1.0
0002f0 00 00 80 3f 00 00 80 bf 00 00 80 bf 00 00 80 3f
       1.0 -1.0 -1.0 1.0
000300 00 00 80 bf 00 00 80 bf 00 00 80 3f 00 00 80 bf
       -1.0 -1.0 1.0 -1.0
000310 00 00 80 bf 00 00 80 3f 00 00 80 3f 00 00 80 3f
       -1.0 1.0 1.0 1.0
000320 00 00 80 bf 00 00 80 3f 00 00 80 3f 00 00 80 bf
       -1.0 1.0 1.0 -1.0
000330 00 00 80 3f 00 00 80 3f 00 00 80 bf 00 00 80 3f
       1.0 1.0 -1.0 1.0
000340 00 00 80 3f 00 00 80 bf 00 00 80 3f 00 00 80 3f
       1.0 -1.0 1.0 1.0
000350 00 00 80 bf 00 00 80 3f 00 00 80 3f 00 00 80 bf
       -1.0 1.0 1.0 -1.0
000360 00 00 80 bf 00 00 80 bf 00 00 80 3f 00 00 80 bf
       -1.0 -1.0 1.0 -1.0
000370 00 00 80 bf 00 00 80 3f 00 00 80 bf 00 00 80 bf
       -1.0 1.0 -1.0 -1.0
000380 00 00 80 3f 00 00 80 bf 00 00 80 3f 00 00 80 3f
       1.0 -1.0 1.0 1.0
000390 00 00 80 bf 00 00 80 bf 00 00 80 3f 00 00 80 3f
       -1.0 -1.0 1.0 1.0
0003a0 00 00 80 3f 00 00 80 bf 00 00 80 3f 00 00 80 3f
       1.0 -1.0 1.0 1.0
0003b0 00 00 80 bf 00 00 80 3f 00 00 80 3f 00 00 80 bf
       -1.0 1.0 1.0 -1.0
0003c0 00 00 80 3f 00 00 80 3f 00 00 80 bf 00 00 80 3f
       1.0 1.0 -1.0 1.0
0003d0 00 00 80 3f 00 00 80 bf 00 00 80 3f 00 00 80 3f
       1.0 -1.0 1.0 1.0
0003e0 00 00 80 bf 00 00 80 bf 00 00 80 3f 00 00 80 bf
       -1.0 -1.0 1.0 -1.0
0003f0 00 00 80 bf 00 00 80 3f 00 00 80 3f 00 00 80 bf
       -1.0 1.0 1.0 -1.0

functional_5/conv2_bn/FusedBatchNormV3 f4 [96]
000000 78 52 49 3e 35 1e 06 3e 91 61 93 3e f7 45 7a 3e
       0.19660366 0.1309746 0.28785375 0.24440752
000010 93 14 70 3e d7 69 5d 3e c2 7c b1 3d 8e 5f e7 3d
       0.23445348 0.21622406 0.08666374 0.112975225
000020 20 10 44 3e cf a5 26 3e 59 af f7 3d 4c b1 93 3e
       0.19146776 0.16274188 0.12093992 0.28846204
000030 67 ed 8f 3e a1 f2 a4 3e b9 d8 33 3e 4d 9e 32 3e
       0.2811081 0.3221636 0.17563142 0.174432
000040 94 b6 72 3e 58 5e 05 3e 4f 14 16 3e 8f bd 26 3e
       0.2370246 0.1302427 0.14656185 0.16283248
000050 c1 39 24 3e c2 28 26 3e 92 1b 55 3e da 1c 5d 3d
       0.16037656 0.16226485 0.20811298 0.053982593
000060 3a e7 91 3e 9c 49 18 3e 83 c9 2f 3e b9 f8 09 3e
       0.28496724 0.1487183 0.17166714 0.13473786
000070 9d 7b 1c 3e 14 ce a1 3e b6 02 3e 3e 8e f4 10 3e
       0.1528153 0.31602538 0.18555722 0.1415579
000080 87 ef 9f 3e c5 95 76 3e b1 02 4b 3e f7 bc ab 3e
       0.31237432 0.2408057 0.19825245 0.33542606
000090 a7 ba 4d 3e 94 a0 2a 3e 84 49 a0 3d 1b e8 a6 3e
       0.20090733 0.16662818 0.07826522 0.32598957
0000a0 cd a0 2f 3e 66 9e 46 3e a5 66 7d 3e 17 2f 5d 3e
       0.17151184 0.19396362 0.24746187 0.21599995
0000b0 d5 6d 83 3d 63 81 e6 3d 4c 0c 5b 3e 39 20 bc 3e
       0.06417433 0.11255147 0.2139141 0.36743334
0000c0 69 43 f9 3d c6 4e 6c 3d b0 e2 85 3d 37 5d 02 3e
       0.121710606 0.05769231 0.06537378 0.12730871
0000d0 8d b3 d1 3d 9f 4b c6 3e 19 17 e9 3e 0f 7c 85 3e
       0.10239325 0.3872957 0.45525435 0.26071212
0000e0 86 81 2e 3e 91 9e a4 3e df ba 75 3e 80 37 5e 3d
       0.17041597 0.32152227 0.23997067 0.054252148
0000f0 88 69 ee 3d 6d cc 57 3e ff 8e 66 3e 79 db fe 3d
       0.11641222 0.21074076 0.22515486 0.12444205
000100 29 69 d3 3d ff fe 90 3e ed 8b 35 3e 22 ea 4a 3e
       0.10322792 0.28319547 0.17729159 0.19815877
000110 28 b1 aa 3e 85 0c ae 3e 43 3f bb 3d 47 26 f7 3d
       0.33338284 0.33993927 0.091429256 0.12067848
000120 97 69 6a 3d 5e 5d 88 3e 46 b3 27 3e d6 24 8f 3e
       0.057229605 0.26633734 0.16376981 0.2795779
000130 27 12 73 3e f5 56 61 3e 6a 21 29 3e fd 97 89 3e
       0.23737393 0.22005828 0.16516653 0.2687377
000140 96 71 16 3e 96 a7 4a 3d a6 82 2c 3e f0 9f 32 3e
       0.14691767 0.04947623 0.16846713 0.17443824
000150 63 f7 87 3d 34 1a 97 3e 4f 13 8a 3d 29 b0 eb 3d
       0.06638982 0.2951218 0.06741964 0.11508209
000160 59 23 2f 3e 8a 4c 4e 3e bf c3 28 3e 95 61 7c 3e
       0.17103328 0.20146385 0.16480921 0.246466
000170 ff 6c c9 3d 7e fa 28 3d 29 4d c7 3d 81 bd 44 3e
       0.098352425 0.041254513 0.09731514 0.19212915

functional_5/conv2_bn/FusedBatchNormV31 f4 [96]
000000 45 4b b1 bf 28 d7 df be 41 5e 7e bf 12 0a 4d be
       -1.3851095 -0.4371884 -0.9936257 -0.20023373
000010 5c b6 fb be b9 ad 45 bf bb cf 00 c0 36 5e af 3e
       -0.49162567 -0.77218205 -2.0126789 0.34251565
000020 d2 51 b5 bf 37 24 28 bf cc e1 c0 bf b4 5e 2c be
       -1.4165595 -0.6568026 -1.5068908 -0.16833001
000030 80 b0 aa bc 9a 27 d5 bf 89 cb 88 be 82 5f c6 bf
       -0.020836115 -1.665271 -0.26717785 -1.5497897
000040 0c cf 0c bf 50 81 4b 3e ec 77 46 bf 0a a6 fc bf
       -0.5500343 0.19873548 -0.77526736 -1.9738171
000050 0c 24 95 bf a4 3b 50 bf 44 66 e1 bf 92 9f e1 bf
       -1.1651626 -0.81341004 -1.7609334 -1.7626822
000060 78 98 78 bf 6f 45 8a bf 1c e5 9f bf a2 9e 53 be
       -0.9710765 -1.080244 -1.2491794 -0.20665982
000070 41 4a 92 bf 8e 13 85 bf 04 12 ed bf aa 88 48 bf
       -1.142891 -1.0396593 -1.8521123 -0.7833353
000080 e5 07 c0 bf d8 f7 90 bf 58 79 5c 3e c6 d9 fb be
       -1.5002409 -1.1325636 0.21530664 -0.49189585
000090 f5 08 20 be 8c ce b0 be ee f7 b4 bf 6c bd 14 bf
       -0.15628417 -0.34532583 -1.4138162 -0.58101535
0000a0 dd b0 91 bf 97 69 b0 bf 79 f3 42 bf a1 99 75 bf
       -1.1382099 -1.3782223 -0.7615276 -0.95937544
0000b0 63 41 82 bf 88 07 51 bf 09 c5 56 bf 70 a7 ce bf
       -1.0176204 -0.81652117 -0.838944 -1.6144848
0000c0 bd 42 2e 3e 94 0d 33 3f 10 84 79 3e d8 e8 10 bd
       0.17017646 0.69942594 0.24366784 -0.035378307
0000d0 85 83 1f be 0c 47 f1 be 66 43 0d bf 86 73 d9 be
       -0.15577514 -0.47124517 -0.55180967 -0.4247095
0000e0 42 25 11 bf 74 07 af 3e d2 d0 8c bf 20 04 c6 bf
       -0.56697476 0.34185374 -1.1001227 -1.5470009
0000f0 76 40 c0 be 6e 03 f1 bf ea 5f e1 be 9c 80 73 be
       -0.3754918 -1.8829172 -0.4401849 -0.2377953
000100 ba bf c2 3e af 22 4b bf 26 4e 88 bf 3d e3 c6 bf
       0.380369 -0.793498 -1.0648849 -1.5538098
000110 c2 67 b4 bf 3c b2 21 bf e5 2a 06 c0 00 40 b4 37
       -1.4094164 -0.6316259 -2.096368 2.1487474e-05
000120 77 fa 09 c0 0a 78 40 bf 72 b6 ef bf 29 2e 3c bf
       -2.1559122 -0.75183165 -1.8727553 -0.73507935
000130 12 80 83 bf a8 2e 23 bf a8 b2 d7 3d b0 3b eb be
       -1.0273459 -0.63743067 0.10532123 -0.45943975
000140 7e 9e dd bf ba 15 24 bf 1e 93 98 be 1e 8c a5 bf
       -1.7313993 -0.6409565 -0.29799742 -1.2933385
000150 96 e7 04 3f 0f f1 7a bf e6 8c 01 bf f5 b7 de be
       0.5191587 -0.98024076 -0.5060562 -0.43499723
000160 28 d5 36 bf 0b 35 59 bf 76 52 bc bf 22 2e af be
       -0.71419 -0.8484656 -1.4712665 -0.34214884
000170 3a 56 20 3f d1 db 68 3e 42 dd d2 be 7e 30 d2 bf
       0.6263157 0.22740103 -0.4118443 -1.6421049

functional_5/conv3_bn/FusedBatchNormV3 f4 [256]
000000 2b 21 65 3c f9 92 4e 3c bf 79 96 3c 13 e5 86 3c
       0.013984959 0.012608283 0.0183686 0.016466653
000010 b5 30 3a 3c d0 7e 4d 3c db 70 49 3c 43 0a b3 3b
       0.011364152 0.0125424415 0.012294973 0.00546387
000020 74 f3 7f 3c a9 46 ad 3c c7 85 03 3c f3 59 22 3c
       0.015622009 0.021151857 0.0080275005 0.009909141
000030 e6 15 79 3c fa 17 b4 3c e4 df 8a 3c 62 3d 64 3c
       0.015202975 0.02198409 0.016952462 0.01393065
000040 21 09 b7 3c be 7c 63 3c 75 14 1f 3c b5 23 34 3c
       0.02234322 0.013884721 0.009709467 0.010994841
000050 38 9e 8b 3c 1b 03 49 3c 65 4c 29 3c 22 bf 50 3c
       0.017043218 0.012268807 0.010333155 0.012740882
000060 06 47 96 3c bd 20 91 3c 59 f1 80 3c b8 e3 96 3c
       0.018344413 0.017715806 0.015740084 0.018419132
000070 f4 6b 52 3c ba b1 9f 3c 15 cb be 3b 32 ed 7c 3c
       0.012843121 0.019493926 0.005822549 0.015437411
000080 ee 53 17 3c 7d 0f 8c 3c e4 9f b7 3c 82 a0 44 3c
       0.009236319 0.01709723 0.022415109 0.012001159
000090 5f eb 00 3c 51 d1 1c 3c ca 83 6d 3c c3 b4 bc 3b
       0.007868617 0.009571389 0.014496753 0.005758853
0000a0 ea c9 5d 3c 05 b9 57 3c 44 6f 6b 3c 04 9f 95 3c
       0.01353691 0.013166671 0.0143697895 0.018264301
0000b0 ab 0f 8f 3c 3a 74 84 3c e8 42 b6 3b d2 1d 35 3c
       0.017463526 0.016168702 0.005562175 0.011054473
0000c0 85 ed 60 3c a0 1c 41 3c 90 be 89 3c ac 9d 5c 3c
       0.013728504 0.01178661 0.0168145 0.013465326
0000d0 dd 24 46 3c f4 6d 72 3c 05 0c 58 3c 65 ea 0c 3c
       0.01209375 0.014796723 0.013186459 0.008600806
0000e0 07 e6 a5 3c 5b cf 9c 3c 1d ac 7b 3c 7f 8f b6 3b
       0.020251287 0.019141844 0.015360859 0.0055713053
0000f0 7c 38 9a 3b ed 81 af 3c 8d 43 16 3c 60 11 a8 3c
       0.0047064405 0.021424258 0.009171379 0.020516098
000100 ad d4 80 3c aa 7d 08 3c 71 8e 85 3c d1 89 a9 3b
       0.015726412 0.008330742 0.016303273 0.0051738997
000110 e4 27 7d 3c 59 40 87 3c 54 80 2e 3c d1 7e 40 3c
       0.015451405 0.016510176 0.010650713 0.011748985
000120 e5 ea bb 3c 68 16 b2 3c b6 7a 89 3c 6c fc 92 3c
       0.022939155 0.0217392 0.016782146 0.01794263
000130 3c 3e 1f 3c b0 f9 2c 3c 1d 08 4e 3c 83 35 d5 3c
       0.009719428 0.010557577 0.012575177 0.026026493
000140 8a cd 87 3c 55 01 af 3b bd ae f3 3b 33 0d 8c 3b
       0.0165775 0.005340735 0.007436602 0.0042740344
000150 e9 a4 cc 3b 15 fa 51 3c b9 ed a6 3b 16 0b af 3b
       0.0062452448 0.012815972 0.0050942567 0.0053418977
000160 20 9a 91 3c 42 2d 00 3b 60 96 86 3c 5e a7 1b 3c
       0.017773688 0.0019558226 0.016429126 0.009500353
000170 e5 bb 5a 3c 75 86 8f 3b 2c 5b f3 3b 3d b2 8d 3c
       0.013350462 0.004380042 0.00742664 0.017296905
000180 f8 ac b6 3c 40 b4 6f 3c 0d b5 56 3c 06 ad 19 3c
       0.022299275 0.014630377 0.013104689 0.009379631
000190 77 c8 43 3c 56 f9 50 3b a0 8d 89 3c 6b 6c 3b 3c
       0.01194965 0.0031886897 0.016791165 0.011439423
0001a0 07 51 88 3c 91 61 81 3c 33 a7 21 3c 94 80 02 3c
       0.0166402 0.015793594 0.009866524 0.007965226
0001b0 80 14 69 3c ea fb 58 3c 39 68 07 3c 99 22 00 3c
       0.014226079 0.013243655 0.008264595 0.007820749
0001c0 19 33 95 3b e6 a8 46 3c 5b c6 85 3c 86 6a 42 3c
       0.0045532105 0.012125229 0.016329935 0.0118662175
0001d0 38 df 4d 3c 1d 9a 88 3c 9b db bd 3c 6d 3d c8 3c
       0.0125654265 0.01667505 0.023176005 0.024443353
0001e0 c4 94 d0 3b 34 2a 29 3c 56 47 1f 3c d3 1b 94 3c
       0.0063653905 0.010325003 0.009721598 0.018079674
0001f0 8e 4c 3d 3c cd 8b 17 3c d7 99 82 3c fb cd 35 3c
       0.011553897 0.00924964 0.015942497 0.011096473
000200 50 86 90 3c 43 44 53 3c 69 01 98 3c 9f ca 4a 3c
       0.01764217 0.012894693 0.01855536 0.01237741
000210 98 cc b2 3c 63 ec 61 3c 49 00 96 3c ac 7e 3d 3c
       0.021826074 0.013789269 0.018310683 0.011565845
000220 40 c6 72 3c f6 18 63 3c 8d 45 b3 3c 0c 2d 2d 3c
       0.014817774 0.013860932 0.02188375 0.010569822
000230 b5 c7 b2 3c 42 c5 99 3c 1e df 8a 3c f8 05 21 3c
       0.021823743 0.018770818 0.016952094 0.009828083
000240 d3 64 8c 3b e9 33 36 3c 98 c4 c2 3c d6 fc 76 3c
       0.00428448 0.011120775 0.023775384 0.015074929
000250 75 7f b2 3c ab 3f ad 3c bf 0c 92 3b 52 24 66 3c
       0.021789292 0.021148523 0.004457086 0.014046745
000260 fe b6 8c 3c 86 72 a0 3c 7f 29 52 3c 83 82 a2 3c
       0.017177101 0.019585859 0.012827276 0.019837623
000270 01 3a 7d 3c cc e0 25 3c 5e 20 39 3c fe 66 a5 3c
       0.015455724 0.0101243965 0.011299221 0.020190712
000280 d8 af e7 3b 42 2e 63 3c 6b 88 b3 3c 2b ed 16 3c
       0.0070705228 0.013866009 0.021915635 0.009211819
000290 61 18 5c 3c 8a 28 8b 3c 3d 2b 46 3c de 21 60 3c
       0.013433547 0.016987104 0.01209527 0.01367995
0002a0 e3 b4 8d 3c 2c 2a 2e 3c 73 6d b4 3b 9c e6 a3 3c
       0.017298168 0.010630172 0.0055062114 0.020007424
0002b0 a7 c6 f0 3b 9c 41 b4 3b a0 b5 3d 3c be a6 8a 3b
       0.0073479 0.0055009853 0.011578947 0.004231303
0002c0 77 1c 6f 3c de b6 8a 3c 18 f9 37 3c 7f d9 83 3c
       0.014594189 0.016932901 0.011228822 0.016094921
0002d0 3f a8 82 3c d1 90 d8 3b 3a 54 a0 3c 14 91 aa 3c
       0.015949367 0.0066090603 0.019571412 0.020821132
0002e0 19 4b 26 3c aa 1f 4b 3c ea fa 2a 3c d2 32 74 3c
       0.010149741 0.012397686 0.010435799 0.014904695
0002f0 e1 79 98 3b 34 2f 95 3c 2b 9f 43 3c af 99 90 3c
       0.004653201 0.018210985 0.011939804 0.017651407
000300 08 04 83 3c 03 10 84 3c 93 5d 27 3c 2e 18 bd 3c
       0.015993133 0.016120916 0.010215181 0.023082819
000310 1f 5f 82 3c 90 a9 6c 3c 6e 16 a4 3c 3f 97 10 3c
       0.015914498 0.014444724 0.020030227 0.008825122
000320 79 08 37 3c f1 8a 5f 3c 28 f1 2f 3c 7c 28 5b 3c
       0.011171454 0.013643966 0.0107386485 0.013376351
000330 68 ea 59 3c b1 51 6d 3c e2 2c 8c 3c 55 a7 44 3c
       0.013300516 0.014484809 0.017111246 0.012002786
000340 ea 8c 85 3c 41 25 af 3c 68 66 9a 3c dc 8b 70 3c
       0.016302545 0.021380069 0.01884766 0.014681783
000350 52 07 29 3c cb 4d 46 3c 89 2c 87 3c c6 8e a9 3c
       0.010316687 0.012103508 0.016500728 0.020697962
000360 7b 51 83 3b e1 71 cd 3b 31 c3 4b 3c 35 ef 16 3c
       0.004007516 0.006269679 0.012436674 0.009212305
000370 6b bd bd 3c 93 ad 76 3c f5 7a 99 3c be f5 6b 3c
       0.02316161 0.015056032 0.018735388 0.014401851
000380 e0 f7 6e 3c 5a cb 00 3c 6a f7 7e 3c cc 46 4f 3c
       0.014585465 0.007860983 0.015561918 0.012651157
000390 4b 2f 5d 3c 61 03 0a 3c 72 a4 60 3c 8c d9 58 3c
       0.013500045 0.008423657 0.013711082 0.013235461
0003a0 7b ff 9a 3c 61 b1 4a 3c 9d 23 9f 3c 55 75 cf 3b
       0.01892065 0.012371392 0.019426161 0.0063311257
0003b0 79 43 9d 3c aa e1 69 3c 6a 27 76 3c 4a 55 8a 3c
       0.019197213 0.014274994 0.0150240455 0.016886372
0003c0 7d e8 43 3c c1 a1 98 3c 5b 3e 2d 3c d0 3a ce 3b
       0.011957285 0.018631818 0.010573949 0.006293632
0003d0 46 f0 5a 3c 86 04 20 3c b6 70 36 3c 92 c2 4b 3c
       0.01336295 0.0097667035 0.011135271 0.012436526
0003e0 33 d3 b3 3c fa 99 92 3c de 9c 66 3c 49 89 17 3c
       0.021951294 0.017895687 0.014075486 0.00924904
0003f0 ec 2a 54 3c fb 95 b7 3b 31 7e 1f 3c 19 b3 51 3c
       0.0129496865 0.005602596 0.009734676 0.012799048
